ml_app/models/a_b_model.pth (torch, 110751 bytes, 4 tensors)

l1.weight f4 [700, 35]
0	0x3e0960bf	0.13415812
1	0xbd31ccad	-0.043408085
2	0xbdd90f8d	-0.10598669
3	0x3e03b2ac	0.12861127
4	0xbe14e702	-0.14541247
5	0xbd00ec7c	-0.03147553
6	0xbd170ed4	-0.036879376
7	0x3e2a6856	0.16641364
8	0xbe13a59b	-0.14418642
9	0x3dded560	0.10880542
10	0xbe15fe54	-0.146478
11	0x3e12d846	0.14340314
12	0x3ce7f929	0.028317051
13	0xbd5ed448	-0.054401666
14	0xbdb26180	-0.08710003
15	0x3e1e4f6f	0.15459989
16	0xbd1c7cdb	-0.03820501
17	0x3da69c02	0.08135225
18	0x3da8c2c6	0.08240275
19	0x3d691f78	0.056914777
20	0x3d661fe8	0.056182772
21	0xbe055202	-0.13019565
22	0xbe15e92a	-0.14639726
23	0x3d07ee0f	0.033186015
24	0x3b346dd2	0.0027531278
25	0xbd6eb397	-0.05827674
26	0x3e0c65d2	0.13710716
27	0xbd428420	-0.047489285
28	0x3dbfbb02	0.09361841
29	0xbe236cc6	-0.15959463
30	0x3e058fb6	0.13043103
31	0x3e2007ff	0.1562805
32	0xbd481129	-0.04884449
33	0xbd2ffadb	-0.042963844
34	0xbe059f8f	-0.13049148
35	0x3d851bec	0.06499466
36	0x3e173ec7	0.14770041
37	0x3e026439	0.12733544
38	0x3d3b6d51	0.04575855
39	0xbdc0dc26	-0.0941699
40	0xbdeb7a34	-0.11497918
41	0x3e18c61d	0.14919324
42	0x3e072b20	0.13200045
43	0x3e224efd	0.15850444
44	0xbd5524c3	-0.05203701
45	0x3d9495fd	0.072551705
46	0xbdd0e995	-0.10200802
47	0xbe19f05f	-0.150331
48	0x3d21c658	0.039495796
49	0xbe1ca945	-0.15298946
50	0xbd721de5	-0.05911054
51	0x3de13678	0.10996717
52	0xbe24c517	-0.16090809
53	0x3de6728c	0.11252317
54	0xbc3b4cfa	-0.011431927
55	0xbc0951ce	-0.00838132
56	0xbe10aaa3	-0.14127593
57	0xbe195b25	-0.14976175
58	0x3e00a3d7	0.125625
59	0xbdb009df	-0.08595633
60	0x3d8f75e2	0.07004906
61	0xbdfa0a30	-0.12208974
62	0xbd74dfc0	-0.059783697
63	0x3e0acd4e	0.1355488
64	0x3d43fe55	0.04784997
65	0x3db23c93	0.0870296
66	0xbcd4d6cf	-0.025981335
67	0xbe214a7c	-0.1575107
68	0xbcbb7f94	-0.022887982
69	0xbd5e3dfd	-0.054258335
70	0xbca09c72	-0.019605849
71	0x3d4cf5ca	0.05003909
72	0x3d9d2b29	0.07674248
73	0x3b14ac78	0.0022685807
74	0xbd471cb7	-0.04861137
75	0x3e299617	0.16561161
76	0xbe11a91b	-0.14224665
77	0x3d58ef52	0.05296261
78	0x3cc17825	0.02361686
79	0x3d972de5	0.073818006
80	0xbdc96104	-0.098329574
81	0x3dcee0e2	0.10101487
82	0x3d49ddac	0.04928367
83	0x3d588cdb	0.052868705
84	0x3de1ed37	0.11031573
85	0x3d746d3a	0.05967448
86	0x3df744e1	0.120736845
87	0xbd807ef7	-0.062742166
88	0x3da7609e	0.08172725
89	0xbdc35989	-0.09538562
90	0xbd0a5d40	-0.033780336
91	0x3e21b65f	0.15792225
92	0x3e11ec2c	0.14250249
93	0xbd8eb259	-0.06967611
94	0x3cea7c33	0.028623676
95	0x3e17a84a	0.14810291
96	0xbbf49fac	-0.0074653234
97	0x3daf162d	0.085491516
98	0x3df9f532	0.122049704
99	0xbd8ea431	-0.06964911
100	0xbc48c8c8	-0.012254901
101	0x3d81b168	0.06332666
102	0x3dd90de8	0.105983555
103	0x3de67a17	0.112537555
104	0x3dd5bb93	0.104361676
105	0x3e1c7dca	0.1528236
106	0xbe282ddd	-0.16423745
107	0x3e2af6a9	0.16695656
108	0x3d8eec9d	0.06978724
109	0x3c4d0580	0.012513518
110	0xbd1eb891	-0.038750235
111	0x3e1b65ca	0.15175548
112	0xbcd06c2f	-0.025442211
113	0xbcc6a950	-0.024250656
114	0xbdb34ce0	-0.08754897
115	0xba96dda9	-0.0011510152
116	0x3c921025	0.017829964
117	0xbdc6719b	-0.09689637
118	0x3d357725	0.04430308
119	0x3d45b5a3	0.048268925
120	0xbe1d800a	-0.15380874
121	0x3e05f4b1	0.13081624
122	0x3de60eef	0.11233317
123	0xbdd2176f	-0.10258376
124	0x3dc429c5	0.095782794
125	0xba7e94b0	-0.0009711487
126	0x3bd4da65	0.006495761
127	0xbce51db7	-0.02796827
128	0xbc43d318	-0.011952184
129	0x3d02c623	0.03192724
130	0xbd465e56	-0.04842981
131	0xbe2a14aa	-0.16609445
132	0xbb55ef34	-0.0032643797
133	0x3d9e97b2	0.07743777
134	0xbdf2d5dc	-0.11857197
135	0x3d96ce7f	0.07363605
136	0x3dd0077a	0.10157676
137	0x3e1cdf26	0.153195
138	0x3de0c6c1	0.10975409
139	0x3dc60d13	0.096704625
140	0x3dec8730	0.115492225
141	0x3c5da566	0.013528204
142	0xbd7989cb	-0.060922425
143	0xbda473fb	-0.08029934
144	0xbdabfc9e	-0.08397792
145	0x3c548400	0.012970924
146	0x3d2c3631	0.04204387
147	0xbd2ea2ac	-0.042635605
148	0xbdb8874a	-0.09010179
149	0xbdb9be34	-0.090694815
150	0x3dc704bb	0.09717699
151	0xbdeb4825	-0.1148837
152	0xbca8abd5	-0.020589748
153	0x3d63ece0	0.055645823
154	0x3e1c853e	0.15285203
155	0x3db09d44	0.08623746
156	0xbd6d6504	-0.057957664
157	0xbe05db0c	-0.13071841
158	0xbda476a6	-0.08030443
159	0xbe2176ad	-0.15767927
160	0xbdaaea19	-0.08345432
161	0x3b7f8919	0.0038991629
162	0x3e1ae333	0.15125732
163	0x3ddc7339	0.107641645
164	0x3da08dd1	0.07839549
165	0xbdc80b0e	-0.097677335
166	0xbd94fd8c	-0.07274923
167	0x3c7c1ea0	0.015388161
168	0x3db0d2f8	0.08633989
169	0x3e1dc3bf	0.15406702
170	0x3d9f8172	0.077883616
171	0x3ba34700	0.004982829
172	0xbdba3e19	-0.090938754
173	0x3df35c28	0.11882812
174	0xbde4a0c4	-0.11163476
175	0xbdb35236	-0.08755915
176	0xbd9bba0b	-0.07603844
177	0xbd102a27	-0.03519645
178	0xbe2376aa	-0.15963235
179	0xbcc64d10	-0.024206668
180	0x3d5acd70	0.053418577
181	0x3ca11a4d	0.019665862
182	0x3e02550d	0.12727757
183	0xbdd03398	-0.10166091
184	0xbd4cef60	-0.050032973
185	0x3e2690f5	0.16266234
186	0xbbe6efe0	-0.0070476383
187	0xbdacb45a	-0.08432837
188	0xbda5fcaa	-0.081048325
189	0x3d8a3148	0.06747681
190	0xbc857825	-0.016292641
191	0xbd23a290	-0.039949954
192	0x3e147408	0.14497387
193	0x3d888f10	0.06667912
194	0x3e2a55a7	0.16634236
195	0xbd8a2446	-0.067452
196	0xbdecc314	-0.11560646
197	0x3e11fa3f	0.14255618
198	0xbe0905f1	-0.13381173
199	0x3d87b80a	0.066268995
200	0xbd2a1168	-0.041520506
201	0x3d13ab45	0.036052007
202	0x3d852300	0.06500816
203	0xbdb3f988	-0.08787829
204	0x3da8c35e	0.08240388
205	0xbe152375	-0.14564307
206	0x3e0f5ff4	0.14001447
207	0x3d6012dd	0.05470549
208	0x3d711489	0.058857474
209	0xbde8a065	-0.11358718
210	0xbdfab8ec	-0.12242302
211	0xbc56a690	-0.013101235
212	0xbd623c44	-0.055233255
213	0xbe1af1f5	-0.15131362
214	0xbd650bf0	-0.055919588
215	0xbdb6f820	-0.08934045
216	0xbde2fcda	-0.11083384
217	0x3ca7aa08	0.02046682
218	0xbc8f88f8	-0.017521366
219	0xbc5228f0	-0.012827143
220	0xbde1d3ba	-0.11026712
221	0xbe2941e1	-0.16529037
222	0xbdc67d35	-0.0969185
223	0xbd9b61a1	-0.075869806
224	0xbdc05ebc	-0.09393069
225	0xbdcbaed9	-0.09945459
226	0xbc787750	-0.015165165
227	0xbd34782a	-0.04405991
228	0xbe1c37c6	-0.15255651
229	0x3dafcd18	0.085840404
230	0xbddd29ca	-0.10798986
231	0xbdbd29d9	-0.092364974
232	0xbd2a08e4	-0.041512385
233	0xbc2d9290	-0.010594025
234	0x3dba4878	0.090958536
235	0x3e14ef20	0.14544344
236	0x3ded33ac	0.11582121
237	0x3e05a796	0.1305221
238	0xbd6dbbba	-0.058040358
239	0xbe1c8015	-0.15283234
240	0xbd301618	-0.04298982
241	0x3df5e1fc	0.12005994
242	0x3ba803e0	0.005127415
243	0xbe289695	-0.16463692
244	0x3cdf9b18	0.027295634
245	0x3d876137	0.06610339
246	0xbd92d1c1	-0.07168914
247	0xbd8fbdbf	-0.07018613
248	0x3d67778d	0.056510497
249	0xbc75b512	-0.014996784
250	0x3e1504de	0.14552638
251	0xbd1bb4df	-0.03801429
252	0x3e21fb42	0.15818503
253	0xbd9c6d00	-0.076379776
254	0x3dc8eda0	0.09810948
255	0x3d99e51c	0.07514402

l1.bias f4 [700]
0	0xbe02b8fc	-0.12765878
1	0xbd1b3cc0	-0.037899733
2	0xbdfad4d9	-0.12247629
3	0x3dbbc6d9	0.091687866
4	0xbe047677	-0.12935816
5	0xbde317fe	-0.110885605
6	0xbe28c203	-0.1648026
7	0x3d891ce6	0.06694965
8	0x3da9cb6b	0.08290752
9	0xbd1547e2	-0.036445506
10	0x3e2afc9c	0.16697925
11	0x3e1d48dc	0.15359825
12	0xbca69385	-0.020334015
13	0x3d83d3e5	0.064369
14	0x3dd40d2c	0.10354075
15	0xbdf00b30	-0.11720884
16	0xbda61b46	-0.08110671
17	0x3dd417ed	0.10356126
18	0xbc83e46b	-0.01610013
19	0x3e0864c3	0.13319688
20	0xbdccb455	-0.09995333
21	0xbd24682d	-0.040138412
22	0xbda1dc7a	-0.07903381
23	0xbda7a38c	-0.08185491
24	0xbde3c261	-0.11121059
25	0x3d50d7cd	0.050987054
26	0xbe080fab	-0.13287227
27	0x3d220133	0.039551925
28	0xbdbc2276	-0.091862604
29	0x3db6f9b6	0.08934347
30	0x3ddbcc5f	0.1073234
31	0x3dead2f0	0.114660144
32	0xbd4ae5c1	-0.049535517
33	0x3e1744b8	0.14772308
34	0x3dfed6ab	0.124432884
35	0xbd71f29d	-0.059069265
36	0x3d9d91b1	0.07693804
37	0xbe20dc6d	-0.15709086
38	0x3dee52d6	0.116368935
39	0xbdac2d9a	-0.08407135
40	0x3c7aa9b4	0.015299249
41	0x3d934453	0.07190766
42	0x3dd96105	0.10614208
43	0x3d5ba54b	0.053624433
44	0x3e0958ae	0.13412735
45	0x3d8437d9	0.064559646
46	0x3dc6b700	0.09702873
47	0xbc82c7ca	-0.015964407
48	0x3e131993	0.14365225
49	0xbced206c	-0.028946124
50	0xbdda6400	-0.10663605
51	0x3e105842	0.14096168
52	0xbdea3285	-0.11435417
53	0xbe236acc	-0.15958709
54	0xbd73ae1e	-0.059492223
55	0x3d323f31	0.043517295
56	0xbd8c9700	-0.068647385
57	0x3d3b7e90	0.045774996
58	0x3db3697e	0.087603554
59	0xbd94e5cc	-0.07270393
60	0x3d50c411	0.050968233
61	0x3e0e3801	0.13888551
62	0xbdc6fa6a	-0.097157314
63	0xbda5be5b	-0.08092948
64	0xbccf5919	-0.02531104
65	0x3dc244cd	0.09485779
66	0xbdc7e27c	-0.09759995
67	0x3de2b7b9	0.110701986
68	0xbe1f3c19	-0.15550269
69	0x3e22ffc2	0.15917876
70	0x3c3d400a	0.011550913
71	0xbd4aa40a	-0.049472846
72	0xbdc07333	-0.093969725
73	0x3dc3056c	0.095225185
74	0xbc133b68	-0.0089863315
75	0xbe2b3cd1	-0.16722418
76	0x3cbd1436	0.023080926
77	0x3d4ef8b4	0.05053015
78	0xbe274240	-0.16333866
79	0xbdb0f4fb	-0.08640476
80	0x3e0d6951	0.13809706
81	0xbd8a30fc	-0.06747624
82	0x3e1d8b32	0.1538513
83	0x3e2075c4	0.15669924
84	0x3e28ebf9	0.16496266
85	0x3d8be369	0.068304844
86	0xbc9edd0e	-0.019392516
87	0x3e23f8b5	0.16012843
88	0xbc3db6eb	-0.011579256
89	0x3d8cef4f	0.06881582
90	0x3ccb2992	0.024800096
91	0xbcd5b884	-0.02608896
92	0xbe0e77ad	-0.1391284
93	0x3ce6e2de	0.02818435
94	0xbc77eccf	-0.015132143
95	0xbd8bd3dd	-0.06827519
96	0xbdfe7246	-0.1242414
97	0x3dbbc189	0.09167773
98	0xbdf3b472	-0.118996516
99	0xbe260a9e	-0.16214988
100	0xbcf9a128	-0.030472353
101	0xbe23768b	-0.1596319
102	0x3e06ff85	0.1318341
103	0x3d92d3d3	0.071693085
104	0xbd76084e	-0.060066514
105	0x3e263ae2	0.162334
106	0x3dc0d8ed	0.09416375
107	0x3e1491f9	0.14508809
108	0xbdff601a	-0.12469502
109	0x3da0566b	0.07828983
110	0xbd1bdea0	-0.03805411
111	0xbe21919c	-0.15778202
112	0x3d3998dc	0.045311794
113	0xbd99c46a	-0.07508166
114	0xbe10788d	-0.14108486
115	0xbc977f00	-0.018493176
116	0x3d10f59a	0.035390474
117	0x3d58ad18	0.05289945
118	0xbdac1e2e	-0.08404194
119	0x3ddfbc0d	0.1092454
120	0x3e1b3a31	0.15158917
121	0xbbf21b32	-0.007388496
122	0x3e0f3372	0.13984469
123	0xbd7e363e	-0.062063448
124	0x3d14c218	0.036317915
125	0xbd946314	-0.0724546
126	0x3e22f45c	0.15913528
127	0xbd992039	-0.07476849
128	0x3e0fd875	0.14047416
129	0xbd65152f	-0.055928405
130	0x3e0c87a3	0.13723616
131	0x3cda95e8	0.026682809
132	0x3cc91a7b	0.02454876
133	0xbe1f3b84	-0.15550047
134	0x3e2bb4cd	0.16768189
135	0xbd3ac9a7	-0.045602467
136	0xbe0f6689	-0.14003958
137	0x3cc8c3db	0.024507454
138	0xbce3324f	-0.02773395
139	0xbdf5c178	-0.11999792
140	0x3e297aae	0.16550705
141	0xbdb436e3	-0.08799531
142	0xbd99457f	-0.074839585
143	0x3d2aff34	0.041747287
144	0x3d8bad88	0.06820208
145	0x3cc13256	0.023583572
146	0xbd389663	-0.045065295
147	0x3e05b167	0.13055955
148	0x3e0bc706	0.1365014
149	0x3e1f566c	0.15560311
150	0xbd1fc0e0	-0.0390023
151	0xbdab799f	-0.08372807
152	0x3dad6372	0.08466233
153	0xbd81bd5d	-0.06334946
154	0x3c758447	0.014985151
155	0x3dd675c1	0.104716785
156	0x3d9f2aa8	0.07771808
157	0xbe0a0829	-0.13479675
158	0xbe299bcb	-0.16563337
159	0xbe2899e2	-0.16464952
160	0x3d848959	0.064715095
161	0x3dd809c5	0.105487384
162	0x3df26cc2	0.1183715
163	0xbdfaa308	-0.12238127
164	0xbdb76306	-0.08954434
165	0x3dbfacbe	0.0935912
166	0x3e1d6f94	0.15374595
167	0x3df43fca	0.11926229
168	0xbdae0ec0	-0.08498907
169	0xbe09c3b0	-0.13453555
170	0x3e177ddf	0.1479411
171	0xbe280dd0	-0.16411519
172	0x3db2196d	0.08696256
173	0xbda543b2	-0.080695525
174	0xbdf320c0	-0.11871481
175	0x3db11314	0.08646217
176	0xbdc7b530	-0.09751356
177	0xbc2b86a7	-0.010469115
178	0x3d29b759	0.04143462
179	0xbc95b03b	-0.01827251
180	0x3e090d7a	0.13384047
181	0x3d3c938a	0.04603914
182	0x3e00a9d6	0.12564787
183	0x3e162352	0.14661911
184	0xbd414c32	-0.047191806
185	0xbdf39dca	-0.1189533
186	0x3d9abd34	0.07555619
187	0x3df44370	0.11926925
188	0x3df9ae70	0.121914744
189	0xbd18b3f1	-0.03728098
190	0x3cea8db7	0.028632028
191	0x3d1963b3	0.037448596
192	0x3d27d98c	0.040978953
193	0x3de4a0f3	0.11163511
194	0xbd8d0e5e	-0.06887506
195	0x3e052e97	0.13006054
196	0xbd387bec	-0.045040056
197	0x3dad0a74	0.084492594
198	0x3e29ddf6	0.16588578
199	0xbcae3060	-0.021263301
200	0x3dc54f38	0.096342504
201	0x3d2c62e0	0.042086482
202	0x3e0b7877	0.13620172
203	0x3d9457e5	0.07243327
204	0xbe12b6b0	-0.14327502
205	0xbc9904a9	-0.01867898
206	0xbd1b8bd8	-0.037975162
207	0x3da98854	0.08277956
208	0xbe08bbd7	-0.13352905
209	0x3d3d33ec	0.046192095
210	0x3cc24ade	0.02371734
211	0xbba6a8e0	-0.0050860494
212	0x3e1c887b	0.15286438
213	0xbda63e7b	-0.08117386
214	0xbdf48fcc	-0.119414896
215	0x3c643470	0.013928518
216	0xbdce9124	-0.10086277
217	0x3def31f7	0.11679452
218	0xbc66923b	-0.01407295
219	0xbd6ab323	-0.057299744
220	0xbe1544fb	-0.14577095
221	0xbcadc388	-0.0212114
222	0xbd947e40	-0.07250643
223	0x3d5a401b	0.053283792
224	0x3e073564	0.1320396
225	0x3cbdb64d	0.023158217
226	0x3cf2de8d	0.029647136
227	0xbd08ebd1	-0.033428017
228	0xbc888e2c	-0.016669355
229	0x3d0bd8a7	0.034142163
230	0xbdaf7265	-0.08566741
231	0x3e12f408	0.14350903
232	0xbe17e5f0	-0.14833808
233	0xbd8c9302	-0.06863977
234	0x3d97b34f	0.07407247
235	0xbae2028d	-0.0017243192
236	0x3c391141	0.011295618
237	0xbd4a2de5	-0.049360175
238	0x3e1c0684	0.1523686
239	0x3cc2c019	0.02377324
240	0x3df021db	0.117252074
241	0xbc055b67	-0.008139468
242	0x3db20eb8	0.08694214
243	0xbb6039de	-0.003421418
244	0x3e1efc6a	0.15525976
245	0xbd39e7ee	-0.0453872
246	0xbdac9d70	-0.08428466
247	0xbd3b64c5	-0.0457504
248	0xbdbb0a49	-0.09132821
249	0xbdd18cc5	-0.10231928
250	0xbd339b35	-0.04384919
251	0x3dcd3ff4	0.10021964
252	0x3e227262	0.15863946
253	0xbe2e335e	-0.17011783
254	0x3e0bdc6d	0.13658305
255	0x3e06b05c	0.13153213

l2.weight f4 [3, 700]
0	0x3cd9eba4	0.02660162
1	0xbc8ae4ee	-0.016954865
2	0xbcf473f3	-0.029840445
3	0x3b9cac9c	0.004781319
4	0x3c86881f	0.01642233
5	0x3cb0f993	0.021603381
6	0x3cdf439e	0.027253922
7	0x3c7365ad	0.014855784
8	0xbb0d55d3	-0.0021566048
9	0xbd072f0d	-0.033003855
10	0xbcadbc79	-0.021208035
11	0x3cc98d5b	0.024603536
12	0xbcd8f54b	-0.026484152
13	0xbd02c3b5	-0.031924922
14	0xbb77c954	-0.003780921
15	0x3ba6529b	0.0050757653
16	0x3baf6434	0.0053525213
17	0xbc9f5ba6	-0.019452881
18	0x3d24d3b6	0.040240966
19	0x3ce22ddd	0.02760976
20	0x3cf03daa	0.029326279
21	0x3c8def1c	0.01732593
22	0x389d8bba	7.5123695e-05
23	0x3c334b3c	0.01094323
24	0x3c9f0000	0.01940918
25	0x3cf7c2eb	0.030244311
26	0xbd10c292	-0.035341807
27	0xbb622eab	-0.003451268
28	0xbcb450d2	-0.022011194
29	0x3c243b00	0.010023832
30	0xbba4dd28	-0.0050312467
31	0xbc983569	-0.018580155
32	0x3cde7b5e	0.027158435
33	0xbd08e1d6	-0.0334185
34	0x3d00de20	0.031461835
35	0x3ca9d1b2	0.020729873
36	0xbc886011	-0.01664737
37	0x3c535f7e	0.012901185
38	0xbcad5df8	-0.021162972
39	0x39bb9c00	0.00035783648
40	0xbbfc987b	-0.007708607
41	0x3cf237b8	0.029567584
42	0x3d26f7df	0.040763732
43	0xbbdc01a8	-0.0067140646
44	0x3ccc3360	0.024926841
45	0xbc1f2bcd	-0.009715033
46	0xbcab8a39	-0.020939933
47	0x3d1e58cf	0.038658913
48	0xbc0c11ed	-0.008549196
49	0x3cf2ae48	0.02962412
50	0xbc93eb7b	-0.018056622
51	0xbcd746d7	-0.026278896
52	0xbc0f5a76	-0.008749595
53	0x3c4024ab	0.011727492
54	0xbd23a79c	-0.039954767
55	0xbc915b4b	-0.017743727
56	0xbc752582	-0.014962556
57	0xbca8209a	-0.020523358
58	0xbcd5779f	-0.026058016
59	0xbc1f2732	-0.009713935
60	0xbcd96206	-0.026535999
61	0x3d20dc94	0.03927286
62	0xbc03dca1	-0.0080482075
63	0x3d039d1c	0.032132253
64	0xbcf07453	-0.029352343
65	0x3d22fcc8	0.039791852
66	0xbcc899ec	-0.024487458
67	0xbd17b0d7	-0.037033882
68	0xbc5cfe7b	-0.013488407
69	0x3cadd7eb	0.021221122
70	0x3cda5399	0.02665119
71	0x3c6ed314	0.014576692
72	0x3d0e7233	0.034776878
73	0xbd0fac71	-0.035076562
74	0xbd16066a	-0.03662721
75	0xbd0943b8	-0.033511847
76	0x3ca3b9f3	0.019986128
77	0x3cec0aa2	0.028813664
78	0x3c49e9e0	0.012323827
79	0xbd01db64	-0.031703368
80	0xbc5db213	-0.013531226
81	0x3c06ec58	0.00823506
82	0xbccd4911	-0.025059255
83	0x3cd8ac35	0.026449302
84	0x3cb50be1	0.02210039
85	0xbd21e618	-0.039526075
86	0x3c10c0f3	0.008835065
87	0xbcea52bc	-0.028603904
88	0xbd0776c6	-0.033072256
89	0xbc8c5e14	-0.017134704
90	0xbc0691a9	-0.008213439
91	0xbcb73626	-0.022364687
92	0x3d183d3d	0.037167776
93	0x3d06bf2c	0.03289716
94	0xbc4a8e90	-0.012363091
95	0xbd0b89e4	-0.03406705
96	0xbce95958	-0.028484985
97	0xbd29fad0	-0.04149896
98	0x3bda61fd	0.006664513
99	0x3ccee722	0.025256697
100	0xbc7e92f7	-0.015537969
101	0xbce627ca	-0.028095145
102	0x3c6778af	0.014127894
103	0xbb84cbbf	-0.0040526087
104	0x3cfe8ba4	0.031072445
105	0xbc41051f	-0.011781006
106	0xbc361873	-0.011114228
107	0xbb7cf6a2	-0.0038599153
108	0x3b1459f0	0.0022636615
109	0xbbe5e562	-0.00701587
110	0xbc331bf1	-0.010931955
111	0x3ce71085	0.02820612
112	0xbbef6f6b	-0.007306983
113	0x3cf28f60	0.029609382
114	0xbd06ae6f	-0.032881197
115	0x3cbe3d80	0.023222685
116	0x3d13d939	0.03609583
117	0xbcb84ca8	-0.02249749
118	0x3b864e70	0.004098706
119	0x3ad195e6	0.0015990108
120	0x3baf4a13	0.0053494065
121	0xbce3fb38	-0.027829751
122	0xbca8fcab	-0.020628294
123	0x3d037469	0.03209344
124	0x3c528f4c	0.012851547
125	0xbc947280	-0.018121004
126	0xbbdc7a14	-0.00672842
127	0x3b8e9e87	0.004352394
128	0x3bdfa52a	0.006825109
129	0x3c82ea5b	0.01598089
130	0x3cdde478	0.027086481
131	0x3cb23c55	0.021757284
132	0x3cc76d44	0.024344094
133	0x3c7bda50	0.015371874
134	0x3d1e19da	0.038598873
135	0x3b66b8d6	0.0035205386
136	0x3d16a36b	0.03677694
137	0xbcedbc14	-0.029020347
138	0xbc16e55c	-0.009209957
139	0x3bc1e410	0.0059170797
140	0xbcdd4c49	-0.027013915
141	0x3cf3dfa5	0.029769728
142	0x3d0353c0	0.032062292
143	0x3cdc1710	0.026866466
144	0xbc12b1b5	-0.0089535015
145	0xbd202dc1	-0.039106134
146	0x3c797941	0.015226663
147	0x3ae7b7cb	0.0017678676
148	0xbccfc779	-0.02536367
149	0xbcdf0dd8	-0.02722828
150	0xbca1be21	-0.01974398
151	0xbcf1830a	-0.02948143
152	0x3cc66ee2	0.024222795
153	0xbc673d0a	-0.014113674
154	0x3c8cdb2d	0.017194355
155	0x3c9aaa05	0.0188799
156	0xbd08e870	-0.033424795
157	0x3cc55887	0.024090065
158	0x3d0b19f1	0.033960287
159	0x3c77c1ce	0.01512189
160	0xbc39c42e	-0.011338277
161	0x3b25c931	0.0025296921
162	0xbcb7a9b5	-0.02241979
163	0xbc107572	-0.008817064
164	0xbc2c9e49	-0.010535785
165	0xbc74a9b9	-0.014933043
166	0xbb22fa0a	-0.0024868273
167	0xbc40974b	-0.011754821
168	0xbcbd1588	-0.023081556
169	0x3cb9d661	0.022685232
170	0xbb6c2cc8	-0.0036037434
171	0xbd1e6aee	-0.038676195
172	0x3d279174	0.0409102
173	0x3cc5964c	0.024119519
174	0xbccc0cfc	-0.024908535
175	0xbcc4e056	-0.024032753
176	0xbcc36960	-0.023853958
177	0xbcc3142d	-0.023813331
178	0x3c9c2003	0.019058233
179	0x3cc96c0b	0.024587652
180	0xbc69bb09	-0.014265784
181	0xbca3f56c	-0.020014487
182	0xbbcf52a5	-0.0063269907
183	0x3c52f153	0.012874919
184	0x3c9da097	0.019241614
185	0x3cd866ec	0.026416264
186	0xbcb0f9be	-0.021603461
187	0xbc0924cc	-0.008370589
188	0xbc80b342	-0.015710477
189	0x3cb795f7	0.022410376
190	0x3a1ac4e1	0.0005903971
191	0xbc83e929	-0.01610239
192	0x3c868c2f	0.016424267
193	0x3cb3e6d9	0.021960663
194	0x3d154a66	0.036447905
195	0x3cf3d971	0.02976677
196	0xbbc12419	-0.0058941958
197	0xbc26e69c	-0.0101868175
198	0xbb0213ec	-0.00198483
199	0x3b4eb8e5	0.0031543311
200	0x3d1e8c60	0.03870809
201	0xbce57371	-0.028009148
202	0x3c6233aa	0.013806263
203	0x3c87d1cc	0.016579531
204	0xbca3785a	-0.019954849
205	0x3c3f9c2c	0.011694949
206	0x3b6f0487	0.0036471204
207	0x3d1c2089	0.038116965
208	0x3cadae85	0.021201381
209	0x3cb55626	0.022135805
210	0xbce22b3f	-0.027608512
211	0x3cba14c7	0.022714986
212	0x3d08718b	0.033311408
213	0x3c75d8a1	0.015005262
214	0xbc8c9110	-0.017159015
215	0x3c565cbc	0.013083633
216	0xbc1b87db	-0.00949284
217	0xbc8c444a	-0.017122407
218	0x3d11f7b1	0.035636608
219	0xbcaa09f9	-0.020756708
220	0x3cb01005	0.021492014
221	0xbd1bd559	-0.03804526
222	0xbc7618ee	-0.015020592
223	0x3d1c2441	0.038120512
224	0x3cbad411	0.0228062
225	0xbd0264d3	-0.031834435
226	0xbcd7fda4	-0.026366062
227	0xbcc0501c	-0.0234757
228	0xbbbcecb7	-0.0057655233
229	0x3cc30bff	0.023809431
230	0xbca409b0	-0.02002415
231	0xbd11f08b	-0.03562979
232	0xbcb93abd	-0.022611016
233	0xbc3cf9b0	-0.0115341395
234	0xbd2be7da	-0.041969158
235	0x3c182995	0.009287258
236	0xbc9378af	-0.018001882
237	0x3cc48fea	0.023994405
238	0xbc9852b9	-0.018594133
239	0xbd05942a	-0.032612003
240	0x3cb289ae	0.021794166
241	0xbbb4292f	-0.0054980735
242	0x3b5b2e81	0.0033444467
243	0xbc95d1b5	-0.018288473
244	0xbb38088a	-0.0028081262
245	0xbbfd597c	-0.0077316146
246	0x3c8f0511	0.01745847
247	0xbd272239	-0.04080412
248	0xbcb09857	-0.021557016
249	0x3ce5fdfa	0.028075207
250	0x3d04ca0f	0.03241926
251	0x3c51f940	0.0128157735
252	0x3c2ce107	0.010551698
253	0xbc6295b8	-0.013829641
254	0xbc11d38b	-0.008900533
255	0xbc6caca1	-0.014445455

l2.bias f4 [3]
0	0xbc1a60bb	-0.009422476
1	0xbd0d0197	-0.034425344
2	0xbc0cd258	-0.008595072
