ml_app/models/a_b_c_d_model.pth (torch, 113503 bytes, 4 tensors)

l1.weight f4 [700, 35]
000000 dc ca c4 bd 32 23 0d 3e 51 d0 86 3d 5e 30 c2 bd
       -0.09609005 0.13782957 0.06582702 -0.094818816
000010 80 81 b1 bd 24 92 9c 3d 4c 38 05 3e 10 9a 20 3e
       -0.08667278 0.076450616 0.13009757 0.1568377
000020 a2 70 26 be 7d 32 ce bc e1 e2 86 bc c4 96 e5 bd
       -0.16253904 -0.025170559 -0.016465606 -0.11210397
000030 e3 af 82 3d 7a a5 2a be e2 41 d8 bd 6a d1 22 3e
       0.06381204 -0.16664687 -0.10559441 0.15900198
000040 16 d4 40 bd 37 18 00 be f8 a6 fe 3d 58 4b 0d be
       -0.04707726 -0.12509237 0.124341905 -0.13798273
000050 9b 9a 13 3d b4 f0 81 bd a3 17 7b bd 43 e0 89 bd
       0.036036115 -0.063447386 -0.06130184 -0.06732228
000060 2c a0 14 3e 78 90 1a be b5 70 19 3e 0b 26 d3 bd
       0.14514226 -0.15094173 0.149844 -0.103099905
000070 af 3b 1f 3c 0f 83 a2 bb da 0d 42 3c 61 86 eb 3d
       0.0097188195 -0.004959471 0.011844123 0.1150024
000080 a0 50 81 bd 3a 8e 09 3e 6d 49 0d 3e 8c 70 da 3d
       -0.06314206 0.13433161 0.13797541 0.10665998
000090 0c 2c 23 bc ac 07 6d 3d cd f6 0c bc 46 eb 61 b9
       -0.009959232 0.057868645 -0.008603764 -0.00021545318
0000a0 d5 c3 c6 3c 26 90 de 3d dc d2 7f 3d f6 cc 96 bd
       0.024263302 0.10867338 0.06245695 -0.07363312
0000b0 ea d7 63 3d b1 ed 10 be ae f2 88 3d af 9d 1b be
       0.055625834 -0.14153172 0.066869125 -0.1519687
0000c0 e8 fa 80 bb 40 59 7d 3c 43 0c b5 bd 5f 24 a9 bd
       -0.0039361604 0.015463173 -0.08840229 -0.0825889
0000d0 68 c9 96 3c 9c 05 22 bd 6a 97 33 bd 67 98 08 3e
       0.018406585 -0.03955613 -0.04384557 0.13339387
0000e0 dc 37 ea 3d 28 ec ee 3d 58 1c 03 be 6a 24 52 bd
       0.114364356 0.11666137 -0.12803781 -0.05130426
0000f0 3d 3c 2e 3e b9 7b 26 be 60 58 4b 3c 05 fb 17 be
       0.17015167 -0.16258134 0.012411207 -0.1484185
000100 cf 0e e3 3d e3 10 88 3d ea cf fb bd 05 a0 cb bd
       0.11086809 0.06643846 -0.12295516 -0.09942631
000110 8b ef b1 bc b4 ea 8f 3d 9c 99 f6 3b 8c 09 6d 3d
       -0.021720668 0.07027188 0.007525636 0.057870433
000120 50 eb 61 bd 54 4b 93 3c fe 34 20 3e d9 15 1b be
       -0.055156052 0.017980255 0.15645215 -0.15145053
000130 21 68 a6 bd 4d 5d 0c be 0e 72 c2 bd f3 2d 3c 3d
       -0.0812533 -0.13707466 -0.094944105 0.045942258
000140 f8 c1 91 3d c3 20 1b 3e 8d 33 d8 3d fb 78 08 3e
       0.07117075 0.15149216 0.105567075 0.133274
000150 39 3b ee 3b c8 7a 1d 3d 40 58 e1 bd b8 4c 85 bd
       0.0072702435 0.03844717 -0.110031605 -0.065087736
000160 f0 3c bb 3d 73 23 0e 3e c9 ed ee bd c4 33 04 be
       0.09142482 0.1388071 -0.11666448 -0.12910372
000170 83 c8 5a bd bb 48 43 3d ee f5 f8 3d e5 bd 7c 3d
       -0.05341388 0.047676783 0.12156282 0.061704535
000180 fe 87 2d 3c 06 45 13 3e d5 8f 1f be 60 06 e1 3d
       0.010591505 0.14381799 -0.15582211 0.10987544
000190 44 49 1e bd 43 6b c8 3c a8 98 60 bd 7b 5e c5 bd
       -0.03864409 0.024465209 -0.054833084 -0.09637161
0001a0 13 a3 f8 3c 8e cc 0c 3e 25 dd 13 bd ea d2 12 3e
       0.030351197 0.13749906 -0.03609957 0.1433827
0001b0 eb 0d ce bd 39 ad 11 bd 10 e4 46 bb 14 c2 a1 3d
       -0.100612484 -0.03556559 -0.0030348338 0.078983456
0001c0 71 67 e7 bd 7f ee 0e be 62 1b 1f 3e 8c f0 34 3d
       -0.11299027 -0.13958167 0.1553779 0.044174716
0001d0 10 ea 27 be eb dd 19 3d ac a4 ca bc 7b df 97 bd
       -0.16397882 0.037565153 -0.024736725 -0.074156724
0001e0 e7 04 79 3d ed 43 95 bd c1 b3 b5 bd c2 b8 02 3e
       0.06079569 -0.072883464 -0.08872176 0.12765792
0001f0 91 d8 0a 3d 37 2c a7 3c 5f 62 b3 bd 4c 33 3f 3d
       0.03389794 0.020406825 -0.08758997 0.04667978
000200 45 ef 1c be 85 a3 0e 3e 17 8a 11 3d b9 3e e4 bd
       -0.15325649 0.13929565 0.035532083 -0.11144776
000210 96 35 0e 3d f2 94 02 3e 23 d7 f7 3d 40 75 e1 3d
       0.034719072 0.1275213 0.12101581 0.11008692
000220 93 13 22 3e 74 09 62 3d 8b 89 a1 3a 44 e3 1f 3e
       0.1582778 0.055184796 0.0012324316 0.15614039
000230 53 50 ea bd b0 ac 33 bd 8e a0 c5 3d 96 ac b3 3c
       -0.11441102 -0.04386586 0.09649764 0.021932881
000240 19 b6 1a 3e 1e 3e 3b 3d d5 c1 7f bc 6b 75 4d bd
       0.15108527 0.045713536 -0.015610178 -0.050160807
000250 26 bf b9 3d 69 84 1e 3e 55 f6 c8 bd 48 81 ba 3d
       0.09069662 0.15480198 -0.09812609 0.0910669
000260 39 9d c9 3d b2 e9 23 bd 2e b8 33 bd 31 81 42 bd
       0.09844441 -0.04001779 -0.04387682 -0.047486488
000270 91 39 0e 3e 40 37 cc 3d ea 23 b4 3d c3 6c 2e bd
       0.13889147 0.099714756 0.087959126 -0.042584192
000280 09 72 01 3e 28 44 f2 bd 94 86 a3 3d a2 b3 06 3e
       0.12641157 -0.11829406 0.07984653 0.13154462
000290 87 7c bb bd 5c 11 1f 3e 95 f3 c6 bd 79 cb 07 3e
       -0.09154611 0.15533966 -0.09714428 0.13261212
0002a0 dd 61 c4 3c 75 94 00 be 4b e9 90 3d f5 08 0b be
       0.023972446 -0.12556632 0.07075747 -0.13577636
0002b0 98 68 b2 bd 16 77 83 3b 39 59 4c 3d 81 12 82 3d
       -0.08711356 0.004011999 0.049889777 0.063511856
0002c0 64 d0 a8 bc af 27 00 be bd 10 31 bd 42 18 b8 bc
       -0.02060718 -0.12515138 -0.043228853 -0.022472505
0002d0 c8 08 d1 bd fa 47 ca 3d 24 33 29 bd cd 79 b5 3d
       -0.10206753 0.0987701 -0.041308537 0.08861122
0002e0 56 96 84 3d 14 71 00 bd 5b 1f bd bc 7f e4 e6 3d
       0.06473987 -0.03135784 -0.02308624 0.11274051
0002f0 e8 76 29 be 18 90 c0 bd eb f0 44 bc 95 f9 0a 3e
       -0.16549265 -0.09402484 -0.01202033 0.1357177
000300 6b 76 b2 bd ec de dc 3d 59 95 56 bc ca cb fa 3d
       -0.08713993 0.107847065 -0.013097131 0.12245901
000310 84 1c 22 bc cd 98 dc bd af d9 ab bc cd a3 65 3d
       -0.009894494 -0.10771332 -0.020977823 0.056064416
000320 9e b6 e2 bd 4f 11 0a 3e ae 61 35 bd 38 75 da 3d
       -0.11069988 0.13483165 -0.044282608 0.10666889
000330 11 96 75 bd 92 7d 9f 3d ba 7c 23 3d 61 d6 6b bd
       -0.059957568 0.077876225 0.03991387 -0.057577495
000340 73 0d 28 3c 5b d5 1f 3e a6 f0 28 3e c2 b8 95 3c
       0.010257113 0.15608732 0.1649805 0.018276576
000350 de ce 95 3d 15 4c ae 3d 06 f4 04 3e 77 66 9a 3d
       0.073148474 0.08510605 0.12983713 0.07539075
000360 88 c1 d4 3d ee c7 c4 3b ce e9 fa bd 0a f2 03 3d
       0.10388476 0.006005279 -0.12251626 0.03221325
000370 f2 60 08 3e e4 23 0d bd f9 f5 b6 bc b6 83 92 bd
       0.13318232 -0.034458056 -0.022334086 -0.07154028
000380 53 a7 d0 bd 0e fc 24 3e ed 3b 2c bd 08 fe 1e be
       -0.101881646 0.16111776 -0.042049337 -0.15526593
000390 85 ef 63 bd bc 33 88 bd f4 97 fd bd 86 d5 98 3d
       -0.055648346 -0.066504925 -0.123824984 0.07462601
0003a0 69 31 1f 3e 17 f7 e2 bd 68 dd c1 3d 8c 60 04 3e
       0.15546192 -0.11082285 0.09466058 0.12927455
0003b0 be cc 9d 3d 34 2e 1d be 8c 4d 07 be 48 d5 e9 bd
       0.07705067 -0.15349656 -0.13213176 -0.11417633
0003c0 ac ff b1 bc 94 cb ae 3b 59 59 e6 3d fc c4 ba 3d
       -0.02172836 0.005334327 0.112475105 0.09119603
0003d0 7b a6 a7 3d 8a ed a5 bd da 40 0d 3e 36 e8 00 3e
       0.081860505 -0.081019476 0.1379427 0.12588581
0003e0 87 24 39 3b e9 f3 19 3d 52 63 86 3d c3 97 f8 bd
       0.0028250532 0.037586126 0.065619126 -0.12138321
0003f0 d2 61 28 3e 76 04 fd bd 38 81 f0 3c 1e fe d1 bd
       0.16443565 -0.123543665 0.029358491 -0.10253547

l1.bias f4 [700]
000000 73 af 95 bc bb 4c 4e 3b fc fe 06 be ba 12 e3 bd
       -0.018272137 0.003147884 -0.13183206 -0.11087556
000010 17 6f 3c 3d 84 ef c2 bd 2e c7 07 bd fa fa a6 3c
       0.04600438 -0.0951834 -0.033148937 0.020383347
000020 cb ea ba bd 66 b8 14 3e 18 29 e9 3d 22 a1 1a be
       -0.091268145 0.14523467 0.11384791 -0.1510053
000030 08 19 af 3d 03 6a 02 3d c4 df e0 3d 55 57 e1 ba
       0.08549696 0.031839382 0.1098018 -0.0017192165
000040 5b d1 0c 3e 9a 85 16 3e 87 39 2c be 73 13 5d bd
       0.13751738 0.14699402 -0.1681882 -0.053973626
000050 62 12 a6 3d e2 1a ad 3d 20 20 27 bd ab 5d 18 3d
       0.08108975 0.08452393 -0.04080212 0.037198704
000060 49 17 e3 bc 2e 04 0e 3e 61 be f6 bd 69 ed c9 3d
       -0.027721064 0.13868782 -0.12048031 0.098597355
000070 e7 21 97 bc 30 c3 ed bd 2b 72 08 3e 4f 6c 7c 3d
       -0.018448783 -0.11609495 0.13324802 0.06162673
000080 bf 97 2e 3e 64 34 0e bd a8 1d 9d bd 62 0b ef 3c
       0.17050074 -0.034717932 -0.07671672 0.029180232
000090 02 fa 59 3d 32 6b 8a bd 89 8d 4e 3d 8c ea 1f 3e
       0.05321694 -0.06758727 0.050427947 0.15616816
0000a0 e8 3e 60 3d 62 54 b4 bd 42 6e bf 3d ed 63 07 be
       0.054747492 -0.08805157 0.09347202 -0.13221712
0000b0 0c 9e c9 bd ef 0d 96 bc e3 5b ef bd 09 46 29 be
       -0.09844598 -0.01831719 -0.11687448 -0.16530623
0000c0 31 01 ed 3c 96 ec 5b 3b af a9 10 be 8d 62 71 bb
       0.028931232 0.0033557764 -0.14127229 -0.0036832422
0000d0 6a 9e e1 bd 0d bb 42 3d 59 6e 85 bd 95 52 3c 3d
       -0.11016543 0.047541667 -0.06515188 0.045977194
0000e0 fd a1 3b 3d 3c 9b 81 3d c1 29 99 bd b2 fb 08 be
       0.04580878 0.06328437 -0.07478667 -0.13377264
0000f0 fc 8d 23 be f4 a5 af bd 7b e4 b8 3d 89 f9 cc bd
       -0.15972131 -0.08576575 0.09027954 -0.100085326
000100 d0 03 88 bc 40 33 b0 bd 31 6b 1d 3e d7 38 f5 3d
       -0.01660338 -0.08603525 0.15372922 0.11973732
000110 97 59 9b 3d 15 3d 64 bc 58 c4 e1 3c b7 7b cb bc
       0.07585447 -0.013930579 0.027559444 -0.024839265
000120 e9 eb 9a bd c2 83 a7 3d ae 67 1e be c5 e8 0a 3e
       -0.075645275 0.08179428 -0.15469238 0.13565357
000130 ba 5b 0d b8 fa c1 16 3e ae ee 8a 3d 08 7d 8a 3d
       -3.3702447e-05 0.14722434 0.06783806 0.06762129
000140 8b ea 20 3e 1f 8b 89 bc 1f 85 90 3d 99 41 27 3e
       0.15714471 -0.01678997 0.07056641 0.16333617
000150 ba ab 0a be c4 f1 dc bd c8 12 f2 3d 69 74 c5 3d
       -0.13542071 -0.10788301 0.118199885 0.09641344
000160 47 3e 25 be f0 b1 bf bc c1 39 07 3d 3c 5d 69 3d
       -0.16137038 -0.023400277 0.033014063 0.05697368
000170 0e 66 67 bd d9 f6 0b be 55 a9 16 3c a1 1b 0a 3e
       -0.05649381 -0.13668384 0.009195645 0.13487102
000180 d4 cd eb bd ba 11 96 3c e7 72 6a 3d 8a c1 27 bd
       -0.11513868 0.018319 0.057238486 -0.040956058
000190 c9 f2 ea bd cc 3a f1 bc 64 b4 15 be 50 f6 dd 3b
       -0.11472089 -0.029446982 -0.14619595 0.0067737475
0001a0 d2 d2 92 bd 77 17 25 be 4b 87 02 3e ac ef 12 3e
       -0.07169117 -0.16122232 0.12746923 0.1434924
0001b0 5f cb 00 3e 5a 34 01 3c 13 57 ba bd eb af 99 bc
       0.1257758 0.007886017 -0.09098639 -0.018760642
0001c0 ab 91 2d be 8a 2d 56 bd cf 4c 7c 3c ab 7d a8 3d
       -0.16950099 -0.052289523 0.015399172 0.08227094
0001d0 66 e9 42 3c 20 bd 2e bd a1 78 24 3e 2d ae 2e be
       0.011896467 -0.042660832 0.16061641 -0.1705863
0001e0 73 88 17 3e 58 98 9a 3d b9 50 23 3e 73 44 e5 3d
       0.14798145 0.075485885 0.15948762 0.11194696
0001f0 c8 64 b5 bd 84 eb b5 bd d2 15 bf 3d a7 22 76 bc
       -0.08857113 -0.08882812 0.09330334 -0.01502291
000200 33 76 19 3e dd f9 7d bc f7 ed 11 3d 57 89 ad 3d
       0.14986496 -0.015501467 0.03562733 0.08473461
000210 52 a9 0c be ff 7e 85 3d 13 b1 da 3d 8f cf 5c 3d
       -0.13736466 0.06518363 0.106783055 0.05390888
000220 0b ae 4a 3d d3 c5 cf bd 41 7e c4 3d bf 1a 02 3e
       0.049482387 -0.10145154 0.095943935 0.12705515
000230 93 80 ac 3c 16 fc 05 be 87 40 a4 bd 48 4c 1b be
       0.021057403 -0.13084444 -0.0802012 -0.15165818
000240 a1 19 01 be 26 5a 31 3d ce af ed bd 3a ca bd bd
       -0.12607433 0.043298863 -0.11605798 -0.09267087
000250 ab 22 9b bd b9 b1 07 be 84 09 99 ba 36 ed f3 3d
       -0.07574972 -0.1325139 -0.001167581 0.11910479
000260 8a 51 32 3e cc 6e bf bd 42 96 a0 bd 69 b6 be 3d
       0.17413917 -0.09347305 -0.078411594 0.09312136
000270 b4 e2 a3 3d b6 07 21 3e 14 a5 61 3d 63 a4 bb 3d
       0.080022246 0.15725598 0.05508907 0.09162214
000280 76 06 9f 3d 20 ff be 3d e2 12 01 be 4c 68 dc 3d
       0.07764904 0.09326005 -0.1260486 0.107620806
000290 8f f3 64 3d 17 d5 2c be 5a 5d d6 3d 98 08 d0 3d
       0.055896338 -0.16878162 0.10467024 0.10157889
0002a0 f5 d0 3a bd bc 95 0b be 03 6d 63 3c 08 ce e4 3d
       -0.045609433 -0.13631338 0.013880971 0.1117211
0002b0 c7 bb 8d 3c 8c e3 93 bd ef 60 28 3e ed e9 dd 3d
       0.017301453 -0.072211355 0.16443227 0.108356334
0002c0 6b 72 d7 3b 79 7c 21 be d1 73 1d 3e c3 9b b7 3d
       0.006574919 -0.15770139 0.15376212 0.08965256
0002d0 1d c8 8c 3d 42 2c 81 3b c7 9d c1 3a 68 2e ef bd
       0.06874106 0.0039420435 0.0014771753 -0.11678773
0002e0 ac 13 05 be cb 50 bc bc 95 c4 08 3e 26 41 97 bd
       -0.12995785 -0.022987744 0.1335624 -0.07385473
0002f0 50 b3 1a be 18 8e fb bd a6 d4 61 3d af 82 17 bd
       -0.15107465 -0.122829616 0.055134438 -0.036989864
000300 a3 f3 02 be ce 9e bc bd bc 5e fa bd e8 f8 1d 3e
       -0.12788253 -0.09209977 -0.122251004 0.15426981
000310 cc 87 11 3e 6d 83 c5 bd 7f d0 5d bd a6 53 53 3c
       0.14211959 -0.09644208 -0.054153915 0.012898361
000320 82 6a f3 3c 73 70 67 bd 9c 85 e3 b9 e5 79 dc bd
       0.029713873 -0.056503724 -0.0004339636 -0.10765437
000330 18 aa 91 3d 56 11 19 be 04 a0 70 bd 3f 2a 94 3d
       0.07112521 -0.1494802 -0.058746353 0.0723462
000340 01 87 af 3c d6 f3 93 3d 02 f3 98 bd 8a ec 29 be
       0.02142668 0.072242424 -0.07468225 -0.16594139
000350 f4 86 e5 bc d6 fd ae bd dd 33 ae 3d 66 cd 32 3a
       -0.028018452 -0.08544509 0.08505986 0.0006820768
000360 27 c9 fe bd 28 e2 e6 3d fd fc 01 be 9d 65 3a 3c
       -0.124407105 0.11273605 -0.12694164 0.011376766
000370 13 6f e4 3d 11 b1 26 bd be 62 7a 3c d4 37 22 3e
       0.11153998 -0.040696207 0.015282331 0.15841609
000380 05 63 87 bd d1 84 ad 3d 38 08 69 bd 81 a5 dc bd
       -0.06610683 0.08472598 -0.056892604 -0.10773755
000390 9d de 03 bd 4f 66 93 3c 96 1d b3 3d 7c 7e b2 bd
       -0.032194722 0.01799312 0.087458774 -0.08715531
0003a0 bc 47 47 3d 87 64 53 bd 63 6c 51 bd 1e a9 e2 bd
       0.048652396 -0.051609542 -0.051128756 -0.11067413
0003b0 fc 39 26 3d 90 1c 78 3c a0 90 08 be 98 07 05 3d
       0.040582642 0.015143529 -0.1333642 0.032477945
0003c0 61 55 d3 3d f9 d0 14 bc ff b2 02 bd dd b0 0a bd
       0.10319019 -0.009083026 -0.031908985 -0.033860076
0003d0 84 96 c6 bd 80 95 bf 3c ce 6e a3 3d 1b bb 7b 3d
       -0.09696677 0.023386717 0.07980119 0.061457735
0003e0 aa 97 01 be 58 72 bd bc b3 26 c6 bd 0d cd 0d 3e
       -0.12655511 -0.023125812 -0.0967535 0.13847752
0003f0 d7 17 97 bc 29 15 ab bc c8 d7 92 bc bd 63 6a 3c
       -0.018443985 -0.020884113 -0.017925158 0.014306006

l2.weight f4 [4, 700]
000000 8c b9 2c bd 9f a3 91 3c 45 e8 80 3c b8 a1 45 3c
       -0.04216914 0.017778216 0.015735755 0.012062483
000010 fe f5 00 3d dc 01 a5 ba e3 03 51 bc 63 d3 0a 3d
       0.031484596 -0.0012589055 -0.012757274 0.033893
000020 8b 88 eb bb 65 9e 16 bd 1b 11 5c bc f0 45 07 3b
       -0.007187908 -0.03677215 -0.013431813 0.0020641051
000030 71 b7 8a 3c 6b 7c e9 bc d1 62 00 3d b6 23 e4 3c
       0.016933175 -0.02850171 0.03134424 0.02784906
000040 51 ca 1a 3d 09 93 e0 bc 40 14 0d 3c de d0 0a 3d
       0.0377906 -0.027413862 0.008610785 0.033890598
000050 91 24 11 bc eb 3c d0 39 51 5e dc 3c 06 7b e8 3c
       -0.008858816 0.0003971824 0.026900442 0.028378975
000060 43 71 91 3c 5d 93 75 3c 76 e7 9e bc 14 ba e3 bc
       0.017754203 0.014988747 -0.019397479 -0.02779869
000070 54 25 e7 bb 2c 2d c3 bb 74 db 80 bc a0 f1 ce bc
       -0.0070540104 -0.0059563126 -0.015729643 -0.0252617
000080 e7 f4 5b bc cb 60 56 3c 30 55 16 bd ef bb 0c ba
       -0.0134250885 0.013084601 -0.036702335 -0.00053685805
000090 83 ef 79 bc 56 5e 63 3c e9 8c cc 3c fa 7e 13 bd
       -0.015254858 0.013877472 0.024969535 -0.036009766
0000a0 ec 04 b7 3b df c9 3d 3c 3a 34 cd bc ef 14 09 3d
       0.0055853035 0.011583774 -0.025049318 0.03346723
0000b0 f8 d7 05 3d a1 80 b3 3c 14 2d 21 3d 48 bd 49 3c
       0.032676667 0.021911921 0.03934963 0.012313195
0000c0 77 d5 55 3c d1 62 03 bd 7d 20 8d bc 21 a7 bb bc
       0.013051382 -0.03207666 -0.017227406 -0.022906842
0000d0 01 ad 14 3d 7c 43 34 3c f4 ea fd 3b f3 b7 0f 3c
       0.036297802 0.011002418 0.007748956 0.008771884
0000e0 a7 47 f2 3c 1e 18 85 bc 97 61 8f 3c 74 2a 72 3c
       0.029575182 -0.016246852 0.01750259 0.014780629
0000f0 da 25 5d 3c d5 88 2d bd 65 21 e7 3c a4 94 02 3d
       0.013497794 -0.04236682 0.028214166 0.031880036
000100 24 fb ae bc 44 18 f1 3b 81 5e 0d 3c 54 2e c4 3c
       -0.021359988 0.007357629 0.0086284885 0.023947872
000110 dd 22 f1 3b df c2 d9 3c f8 a8 e1 3b 91 92 df 3b
       0.0073588924 0.02658218 0.0068865977 0.006822892
000120 74 43 10 3d 4f b5 c3 3c bc 18 af bc d1 aa dc 3c
       0.03522058 0.023890166 -0.021374099 0.02693692
000130 d3 d3 92 3a fc a3 21 bd ad 02 f6 bc a7 f8 1d 3c
       0.0011202045 -0.03946303 -0.030030573 0.009641803
000140 e7 e9 eb bc 7d ee 91 bc 05 3d 1f 3d 68 62 60 bc
       -0.028798057 -0.017813915 0.038876552 -0.013695337
000150 5c 1a 81 3b 8e 77 ed bc f4 72 9f bc 0c b2 1f 39
       0.00393991 -0.028987672 -0.019463994 0.00015229749
000160 1f dd 7a 3b 1e bb d6 3c fb ab d8 bc bf 3f 0d bd
       0.003827877 0.026212271 -0.026449194 -0.03448462
000170 01 2d 15 bc e5 ec 99 bc 49 c7 22 bd d8 9f bf 3b
       -0.009104968 -0.018789718 -0.039740834 0.0058479123
000180 e8 9d b3 bb f8 3f 6e b8 36 90 f5 bc 23 96 59 bc
       -0.0054814704 -5.6803197e-05 -0.029975992 -0.013280424
000190 69 3d d1 bc 66 44 0b bd 88 22 48 3c ff eb 3e bc
       -0.025541978 -0.034000777 0.012215264 -0.011652946
0001a0 c3 42 62 bc 3c 34 96 3c 2a 81 b3 bc 1f 7c 29 3c
       -0.013809863 0.018335454 -0.021912176 0.010344534
0001b0 b4 76 70 bc d9 21 83 bc f4 29 f2 3c 76 0e 0a 3d
       -0.0146767385 -0.01600735 0.02956102 0.033705197
0001c0 63 5c 45 bc b6 6a d2 3a 52 29 17 bb 35 bf c8 bc
       -0.0120459525 0.0016053531 -0.00230654 -0.024505237
0001d0 7b b7 2d bd 18 89 f7 3b 16 79 2c 3c de ed ba bc
       -0.04241131 0.0075541846 0.010526916 -0.022818502
0001e0 8e 69 83 3a 18 30 c7 bb c9 76 03 3d 9a a0 1c bd
       0.0010025965 -0.0060787313 0.032095704 -0.0382391
0001f0 88 d3 c1 3c 5d 1e 02 bd 60 f4 fc bc 26 58 0f 3d
       0.023660436 -0.031767238 -0.030878246 0.034996174
000200 b8 81 3b 3c 86 f6 43 bc 32 de 38 3c a9 f4 77 bc
       0.011444502 -0.011960631 0.011283444 -0.015134015
000210 16 2d 92 3c 28 ef 92 bc 4e 2a b7 3b 08 b6 28 bd
       0.017843764 -0.017936304 0.00558976 -0.041189224
000220 66 d6 c0 3b 26 da a7 bc 2e 75 ce bb fa b5 e0 3c
       0.0058849333 -0.020489763 -0.00630059 0.027430523
000230 fb c1 c3 3a 78 7b b9 bc ee 0f dc 3c 98 9e b5 3c
       0.001493513 -0.022641882 0.026863065 0.02217035
000240 99 a9 f0 3c b6 82 7c bc 4a 48 5f bb 49 46 c1 bc
       0.029377745 -0.015412023 -0.0034070187 -0.023593085
000250 e0 07 89 bb 04 ab 11 bc 97 cb a7 3c bb 9b 39 bb
       -0.004181847 -0.008890871 0.020482821 -0.0028321582
000260 b1 83 0d 3d bc 56 b3 bc a3 0c dc bc 5b 4e fd bc
       0.03454942 -0.021891944 -0.026861494 -0.030921152
000270 0a bf 66 bb 65 c1 32 3c 9a 15 5f 3b 7b ed a5 bc
       -0.0035209083 0.010910367 0.0034039975 -0.020254841
000280 47 dc aa 3c 98 07 06 bd a0 ba f4 3b b8 f3 ea bb
       0.02085699 -0.032722086 0.0074685365 -0.007170167
000290 8c 39 a3 3c 25 7e ca 3c 2b c8 5c 3b 88 08 03 bc
       0.019924901 0.024718354 0.0033688645 -0.0079976395
0002a0 ec e2 93 3c 22 68 0d 3d 7f 64 72 3b da 12 59 3c
       0.01805254 0.034523137 0.003698617 0.0132491235
0002b0 8d 51 0a 3d 2f 30 52 bc af 34 a2 bc 94 29 b1 bc
       0.03376918 -0.012828871 -0.019800512 -0.021626271
0002c0 23 f5 51 3c 46 eb 29 b8 97 9a 5c 3c 81 ff c9 b7
       0.012814793 -4.0511855e-05 0.0134645915 -2.4080045e-05
0002d0 9e 7d 08 3c ad 70 0d 3c 05 35 cb 3c e9 a0 d3 bc
       0.008330731 0.008632821 0.024805555 -0.025833564
0002e0 d0 4f b8 bc b1 b6 c1 bc 04 a8 33 bc 1e ef 85 3c
       -0.022498995 -0.023646684 -0.010965351 0.016349372
0002f0 c6 18 fc bc 60 d3 18 bd 5d 97 76 3c a9 a5 b3 bc
       -0.030773532 -0.037310958 0.015050736 -0.021929579
000300 f5 87 9c 3c e7 b3 0d bc 20 f2 81 3c b7 5c bc 3c
       0.019107798 -0.008648849 0.015862525 0.022993429
000310 2d d7 09 bb 27 4d bc bc bc 79 0a 3d bc c8 34 ba
       -0.0021032796 -0.022986008 0.0338075 -0.0006896367
000320 2c 3c 21 3d fb 59 23 bd ba f1 d1 3c d2 6d f9 bc
       0.039364025 -0.039880734 0.02562796 -0.030447874
000330 86 dd b1 bc cd 88 e4 3c 55 c7 c5 bc 38 34 52 bc
       -0.021712076 0.027897263 -0.0241429 -0.012829833
000340 9a 7e 60 3c 5e 86 ac bc fa 27 ef 3b e2 62 01 3c
       0.013702059 -0.021060165 0.0072984667 0.007897111
000350 1f 06 bb bc 9c f3 a5 3a 29 80 9d 3b 9a 73 5d 3c
       -0.022830067 0.0012661102 0.0048065376 0.013516331
000360 26 7e 18 3d cc 2a 17 bb e1 0b aa bc f5 c1 b6 3a
       0.03722968 -0.002306628 -0.020757617 0.0013943302
000370 99 22 01 3d 86 34 c0 bc de 04 18 bc 44 28 75 bc
       0.031527136 -0.023462545 -0.009278504 -0.014963213
000380 c1 eb 98 bc 70 78 0f bd 83 e5 90 3c dc da a2 bc
       -0.018667104 -0.035026968 0.017687565 -0.01987975
000390 f0 13 9b bc b5 b1 ba 3b 86 2d c7 bb ff c4 07 bd
       -0.018930405 0.005697454 -0.006078425 -0.033146854
0003a0 ea e7 d2 3c 60 98 c9 3c 30 83 95 3c 16 04 fb bc
       0.02574535 0.02460879 0.018251032 -0.030641597
0003b0 73 7e c4 3a 22 f5 bc bc 90 a6 79 bc 1e 3e c3 3c
       0.0014991298 -0.023066107 -0.0152374655 0.02383333
0003c0 c0 97 82 3c b8 fb 63 3c ff 0d 1c 3c 5b 60 3b 3c
       0.0159415 0.013914995 0.009524821 0.011436547
0003d0 ae 92 b3 39 09 00 af bc 6b be 14 bd 48 84 53 bc
       0.00034250825 -0.021362321 -0.03631441 -0.012909956
0003e0 d6 56 be 3c 7a 25 f6 bc 72 29 e0 3c ce 4e a1 3c
       0.023234766 -0.030047167 0.027363513 0.019690897
0003f0 77 0f f0 3b 00 fe 02 bc 10 fe 12 3c ac 6f db 3c
       0.0073260623 -0.007995129 0.008971706 0.026786648

l2.bias f4 [4]
000000 33 cf 15 3c 23 b1 27 bc db 14 0e bc 35 e9 55 3c
       0.009143638 -0.010235104 -0.0086719645 0.013056089
