ml_app/models/a_b_c_model.pth (torch, 110751 bytes, 4 tensors)

l1.weight f4 [700, 35]
00000000: ccc6 08bd 163a 5abd c852 afbd 4ee6 c9bd
00000010: c049 1b3e 409b 23bc 88bf b13d b003 cc3c
00000020: 9cac bfbd 34fc 6f3d 500f a2bc 0cbb 0a3e
00000030: 1458 5ebd 5802 cd3d d9d0 c5bd b813 c1bc
00000040: d47c 1e3d 32c2 9c3d 5095 4fbd 6121 9abd
00000050: 1d98 01be e7bd 95bd 58d0 813d 605f 07bd
00000060: 2c06 b93d e89c d6bc 643c 5a3d 4c25 af3d
00000070: 44bd 773d 9879 0abe e02d 9ebc 48b6 d93d
00000080: d87b 753d 4fb8 fabd a8d6 293d 5be1 983d
00000090: 8ad9 06be c350 09be 2b83 babd 76a8 1b3e
000000a0: 28b7 36bd 02fd c1bc 088d 31bd 6429 1fbd
000000b0: e124 82bd 46a3 193e 7bca 1abd 591b b13d
000000c0: 7def 9abd a5f4 bc3c d94b e53d 5fbf b53c
000000d0: 2806 11be 2f53 c93d f966 17be fe5e 1dbe
000000e0: 5bb6 20bd b7f8 0a3d 42d8 70bd 0059 88bb
000000f0: c8ea f4bd ed44 873d 400f 64bd 025a 20be
00000100: eca5 0cbe 7d9b 913d a9c7 eabd 7004 8ebd
00000110: 7444 033e 0748 b4bd 4d15 6b3c 00f1 73bb
00000120: eca6 373d a085 edbb 25ce 81bd ecfc e03c
00000130: f122 2dbe 5490 bd3d d13f 1c3d 0efd b739
00000140: d7e0 ffbd e419 013e 4703 953d caf9 a43d
00000150: 2a4c 0a3d bf16 133e bc15 50bd 064e 873d
00000160: f3dc 75bd 21e2 9dbd 826d 08be 1567 2ebe
00000170: 9db4 013e d42a c93c 0a6c c33d 434c 5e3c
00000180: c8c9 2cbe 5cc8 183d 1402 dd3b 7fef 193e
00000190: 61e1 d4bb c512 273d b399 27bd c98b 02bd
000001a0: 521c 6bbd 0c21 0abd 0068 61bb 98e3 143d
000001b0: b874 093e 84bf 3c3d 3077 51bc 2072 04be
000001c0: 0402 f53d 3051 a03c f046 b03d 2ebf dabd
000001d0: d0d2 40bc 3480 b13d 088a b73d 805c 01bd
000001e0: 8088 15be 1c49 f43d 4041 70bb 884a 25be
000001f0: 8043 48bd fdf7 94bd 80d0 e13c 141f 05be
00000200: 1851 7c3d 78b2 d33c c06a b7bb 886e d43d
00000210: c07c 6b3d 08b8 26be 44f5 633d ad9e a4bd
00000220: 49b4 07be e4b3 a93d 10fb 79bc e8da bfbc
00000230: 1254 0e3e ecf1 223d 6418 1abe c949 46bc
00000240: 6278 39bd 74ee 0d3d 1143 7a3c 1911 c4bd
00000250: 7bf5 633d 4b94 d23d 4a01 cebd ef55 b9bd
00000260: ef05 11bd 33db 54bc 36c7 e23d 537d 1b3e
00000270: a4d3 643d 922a f9bd bdaf a7bd f09b dd3d
00000280: 070a 9ebd ac51 933d 4615 353d 7bd3 98bd
00000290: 1ca8 273e f224 2c3e 4b62 26be 76bd 243e
000002a0: 8455 38bd 8107 05be 9986 003e 0235 f8bd
000002b0: 15f3 d7bd ff13 06be ee22 8e3d 868b 173d
000002c0: 18f3 363d 61c3 863d 2ee6 763b fcf5 c13d
000002d0: e200 6bbd 7041 c03d 160c 0b3e 55f6 fbbd
000002e0: b488 623d 34b0 95bb 0883 2e3d e960 15bd
000002f0: 86b8 e7bd 430a c8bd 473f fc3d 85fb bd3d
00000300: 8543 a43d 3f40 2d3e dced 803d c7a1 54bc
00000310: 544e 98bd 312a 0c3d 4ff6 b0bd 65b7 5a3b
00000320: 5325 5cbd bc02 9b3d c587 703d 99ac 893d
00000330: 683e 2c3d 37f7 c33b f902 e13d 8c9a 20be
00000340: d4d9 26be 05d8 f2bd b53e c03d 662f 7ebd
00000350: 29a0 a33d 2816 ac3d 9775 543d 1cbd a4bc
00000360: 6bf2 ed3d be9b 8c3d 5055 80bd 9870 df3d
00000370: a886 0f3d 76ab 093e a964 443c f26a 263e
00000380: 1a6d c0bd 83a0 a2bd 20ac c63d 33ab c93d
00000390: 3c55 af3c 5983 a43b 3fed 833b 39f8 9a3d
000003a0: 381b fd3d 4e11 a2bd 7d0b 983c 296b 92bd
000003b0: 88a4 af3d 2e86 d4bd 73fe 1d3e 58e2 dd3d
000003c0: 8ea1 d23b 0227 92bd aefd 96bd 39a7 203b
000003d0: 2220 b0bb 9d02 1bbe 3e23 35bd 3f69 92bc
000003e0: ab76 33bd 62b8 833d 3464 d33d d592 ab3d
000003f0: 615e 3fbd 84a9 3a3d 4fc3 02be 3c19 153d
-0.033392712 -0.05327805 -0.08560711 -0.0985838 0.15164852 -0.009985745 0.0867911 0.024904102
-0.093590945 0.05859013 -0.019782692 0.13547915 -0.054283217 0.10010213 -0.09658975 -0.023568973
0.038693264 0.07654227 -0.050679505 -0.07525898 -0.12655683 -0.073116116 0.063385665 -0.03304994
0.0903438 -0.026197866 0.05328025 0.08552036 0.060483232 -0.13522947 -0.019308984 0.106304705
0.05993256 -0.12242185 0.041464478 0.07464858 -0.13168922 -0.13409714 -0.091070496 0.15200981
-0.044608265 -0.023680214 -0.04334739 -0.038857833 -0.0635469 0.1500369 -0.037790757 0.08647794
-0.0756521 0.023065874 0.111961074 0.02218598 -0.14162505 0.09830319 -0.14785375 -0.15368268
-0.039236408 0.0339286 -0.05879999 -0.0041610003 -0.119588435 0.066049434 -0.055678606 -0.15659335
-0.13735169 0.07109735 -0.114638634 -0.0693444 0.12819082 -0.088028006 0.01434834 -0.0037222505
0.044836923 -0.0072485954 -0.06338147 0.027464353 -0.1690786 0.09256044 0.038146798 0.0003509302
-0.12494057 0.12607533 0.07276016 0.08055456 0.033764042 0.14364146 -0.050801978 0.06606679
-0.060025167 -0.07709146 -0.13323024 -0.1703151 0.12666555 0.024556555 0.09542091 0.013567987
-0.16873848 0.037300453 0.0067446325 0.15032767 -0.006496594 0.040789384 -0.040918063 -0.03187159
-0.057400055 -0.033722922 -0.0034394264 0.036349863 0.13423431 0.04608108 -0.012784764 -0.1293416
0.11963275 0.019569963 0.0860728 -0.10680996 -0.011769012 0.08667031 0.08961874 -0.031582355
-0.14602852 0.11928007 -0.0036659986 -0.16141713 -0.048892498 -0.072738625 0.02756524 -0.13000137
0.061600775 0.025841936 -0.0055974424 0.10372645 0.057492018 -0.1628114 0.055653825 -0.080380775
-0.13252367 0.082862645 -0.015257612 -0.023419812 0.13899258 0.039781496 -0.15048367 -0.012102553
-0.04528082 0.034651235 0.015274779 -0.095735736 0.05565403 0.10282191 -0.100588396 -0.09049594
-0.03540605 -0.012991714 0.11073153 0.15184526 0.0558659 -0.12166323 -0.08187816 0.10820758
-0.07716756 0.07193312 0.04420974 -0.07462212 0.16372722 0.16810969 -0.16248433 0.16087899
-0.04500343 -0.12991144 0.12551345 -0.121194854 -0.10544411 -0.13093565 0.06940256 0.036998294
0.044665426 0.06580234 0.003767382 0.09470746 -0.05737389 0.09387481 0.13578829 -0.123028435
0.05530615 -0.004568124 0.04260543 -0.036469374 -0.11314492 -0.09767582 0.12316757 0.09276489
0.08020691 0.16919039 0.06295368 -0.012978024 -0.07436815 0.034219924 -0.0864073 0.0033373472
-0.053746533 0.07568881 0.05872323 0.067223735 0.042051703 0.005980398 0.10986895 -0.15683955
-0.16294032 -0.11857609 0.093869604 -0.06205692 0.079895325 0.084026635 0.051869955 -0.020109706
0.11618503 0.06865643 -0.06266272 0.109101474 0.035040528 0.13444313 0.01198689 0.16251734
-0.093958095 -0.079407714 0.09700799 0.09847107 0.021402948 0.0050205407 0.0040260847 0.07566876
0.12358707 -0.07913457 0.018560166 -0.071493454 0.08576304 -0.10377155 0.15429096 0.10834187
0.00642795 -0.071363464 -0.07372604 0.0024513735 -0.0053749243 -0.15137716 -0.044223063 -0.01787245
-0.043814342 0.064316526 0.103218466 0.08377615 -0.046720866 0.04557182 -0.12769817 0.03640102

l1.bias f4 [700]
00000000: d270 1fbe 5c27 a63d 4551 8fbc 205d 1ebe
00000010: cbed debd 4628 dcbc 63c5 003e d717 bf3d
00000020: 577a 1bbe 70e3 003c 46e1 41bb aa5e 7e3c
00000030: 7746 083e 42d0 1a3e 5589 153e c003 08be
00000040: bd98 aabd 5fc2 923c baec bb3c f37e 1c3e
00000050: 03ca 42bc cb68 6fbd f28d bebc f8b1 25be
00000060: 82bb bf3d b847 ec3d 59de 063d 3510 29be
00000070: 20d3 edbd e99d 773c a512 233e da4f 223e
00000080: 6243 18bd 7563 e93c 2277 babd a461 543d
00000090: 8df3 4fbd eb3b bbbd 9ad9 d73c 1036 143e
000000a0: e8d2 fc3d 8b82 2a3e 80b5 8abd d8a5 9d3d
000000b0: 17a3 3a3c e403 00be dbbf 2dbd 0882 a03c
000000c0: 60c1 4b3c 4d79 4e3d a10d c7bd 48fd da3d
000000d0: dfe6 88bd a5e8 b63d 5e6b 9cbd 9dd3 543d
000000e0: e8f7 04be 8979 26be 0de8 04be 74c7 5b3d
000000f0: 562b c6bd 1481 63bd 1172 88bd adac 523d
00000100: c44b 863d bc53 f7bd 831c 17be 1bbd 12bd
00000110: 04f1 16be 669e f63d 69af a8bd a5ac 26be
00000120: 9bcb 143e 8144 f3bd 488f cfbd 951e a53d
00000130: fe05 ba3d e336 0c3e 8dfd 8dbc 84f3 0bbd
00000140: 81ab 8a3d 1c26 31bd f467 a7bd e0ae 6b3c
00000150: ad13 803d 6840 f1bc 8efd ea3d 762a c83d
00000160: 9036 b03c 1130 043e be8c 78bd afe9 14be
00000170: 0451 70bd 6219 d73d 79f1 06be 7b60 b73c
00000180: 9031 5c3d e180 d03d 646b 9cbd d91f 2ebc
00000190: 5201 293e e90c 86bd 7336 a4bd aac2 1cbe
000001a0: a1e8 fdbd 0488 03be 1eec 28bb 72a7 633d
000001b0: 61aa aa3d 8631 053d abfd 943d 36b9 78bd
000001c0: dded 52bd 37ef 8ebd 167d d5bd 565d 2d3e
000001d0: fb1d 033d 3af8 d03d ae3c 863d 444e 4b3d
000001e0: f3e5 a6bd 3f58 0fbd bcce 063d 0e48 bc3d
000001f0: d709 de3d 19d2 ff3b 8afb 8e3d f4d5 e0bd
00000200: c604 fc3d 4c2f 7f3c ec82 1f3e ec84 20be
00000210: e788 e33d fd4f aa3d 7261 c13d bbcb bfbd
00000220: 982d 1d3e a7d9 803d d356 12be aa07 3e3d
00000230: 830e 1a3e f10e 93bd 5739 d23c 7d1e f9bd
00000240: a274 f8bd a014 2d3e c0d3 f2bb b119 d73d
00000250: 132c 413d c0c3 4b3c 5d53 f53d 8bde 943d
00000260: 672b 8fbd a50d 06bd ab76 a1bd 533e d33d
00000270: 1276 0dbd 5c2e 23be 277e 253e 6b1a 233e
00000280: 25da 70bc d1a8 fe3d 0946 1cbe e9bc c4bc
00000290: 9a6c 8b3d c5d1 f5bd 9007 fd3d 96e2 3a3d
000002a0: 6e2d 82bd 9225 923d 2170 813d 927f 30bc
000002b0: b392 c23d 4f50 e43b cf25 0b3d aa5d 113e
000002c0: b889 d0bc 5e77 98bc 384b 263e aabb 94bd
000002d0: a3f7 213e 733b 37bd 129a 0b3e eb2b 963d
000002e0: 67b5 0b3e 8334 113e dd03 573b 9ba9 aabd
000002f0: a1fa 1abe 70c9 123e 5eb6 c43d fb11 063e
00000300: 5f58 dbbc 743e 4d3d c3ae 75bd be6a 03be
00000310: 960d 903d 03c4 183e cf47 e93d be6d 7c3d
00000320: ab88 0e3e e5c9 bbbd 3e92 25be fc30 253d
00000330: 3411 823d 3414 103e c441 0cbe a1e1 b7bd
00000340: c990 813d 12f8 de3d f902 1b3e 3b8d a83d
00000350: 7cf8 183d 7936 433d bb55 d4bc fee6 ebbd
00000360: 4c38 9038 1765 d8bd 1086 dcbd 8618 ed3d
00000370: 8096 d83c 0bd5 2dbc 9d42 293e 4e3f f5bd
00000380: 8ab6 1e3e 645f f83d 5f89 853d 983b 35bd
00000390: 3d1c 15be c346 103e 7f7f 163e 40c2 063c
000003a0: e984 923d 7856 823c c0c8 a3bd d091 043e
000003b0: 3066 0bbe 7eb5 803d a53d 123e e5db 81bd
000003c0: 1024 963c 0a9d e7bd 0150 3dbd 8e0b bdbd
000003d0: d27c 053e 728c 033e 9838 1d3e bbba b63c
000003e0: 6237 d6bd b3f7 103e ccc2 91bc 8aff 183d
000003f0: 173c 0ebe 0c68 443d d409 da3b 6755 273b
-0.15570381 0.08112976 -0.017494807 -0.15465212 -0.10885199 -0.026874673 0.12575297 0.09330719
-0.15183388 0.007866725 -0.0029583736 0.015525499 0.1330813 0.15118507 0.1460317 -0.1328268
-0.08329914 0.017914949 0.022940028 0.15282802 -0.011888984 -0.058449548 -0.023261044 -0.16181171
0.09361936 0.11537117 0.03292689 -0.16510089 -0.116125345 0.015113332 0.15925081 0.15850773
-0.037173636 0.028489808 -0.09104754 0.05185093 -0.050769377 -0.09142288 0.026348878 0.14473748
0.12344915 0.1665136 -0.067729 0.07697648 0.011391423 -0.12501484 -0.042419296 0.019593254
0.012436241 0.05040865 -0.097193964 0.10692841 -0.0668466 0.08931092 -0.07637666 0.051959623
-0.12985194 -0.162573 -0.12979145 0.05365701 -0.096762344 -0.05554302 -0.066623814 0.051434208
0.0655742 -0.12076518 -0.1475697 -0.035824876 -0.14740378 0.12041931 -0.08236582 -0.16276796
0.14530794 -0.118783005 -0.101347506 0.08062474 0.09083174 0.13692813 -0.017332816 -0.03416778
0.06770993 -0.043249235 -0.08174124 0.014384955 0.06253753 -0.029449657 0.11474143 0.09773724
0.021510392 0.12908961 -0.060681097 -0.14542268 -0.058671013 0.10502888 -0.13178052 0.022384873
0.053758204 0.10180832 -0.07637671 -0.01062771 0.1650441 -0.06545431 -0.08018198 -0.15308633
-0.12397886 -0.12844855 -0.0025775502 0.05557961 0.083332784 0.032517932 0.07274946 -0.060723506
-0.051496375 -0.0697922 -0.10424249 0.16930136 0.032011013 0.102035955 0.065545425 0.049635187
-0.08149328 -0.034996267 0.032912 0.09193431 0.108417206 0.007807028 0.06981571 -0.10978308
0.12305598 0.015575241 0.15577286 -0.15675706 0.111100964 0.08316038 0.09442414 -0.093650304
0.15349424 0.06291514 -0.14290933 0.046394028 0.15044598 -0.07180584 0.025662107 -0.12164018
-0.12131621 0.16902399 -0.0074104965 0.10502947 0.047161173 0.012436807 0.11978791 0.07269009
-0.069907 -0.032727856 -0.07883962 0.10314622 -0.03453643 -0.15935653 0.16161405 0.15928046
-0.014700447 0.12434543 -0.15261091 -0.02401586 0.068078235 -0.12002901 0.12354958 0.045626245
-0.06356321 0.07136072 0.06320215 -0.010772603 0.09500637 0.0069675813 0.033971604 0.14195886
-0.025456294 -0.018611606 0.16239631 -0.072623566 0.15817122 -0.04473443 0.13632992 0.073325954
0.13643418 0.14180188 0.00328087 -0.08333131 -0.1513467 0.14334655 0.09605096 0.13092797
-0.026775537 0.050108388 -0.05998112 -0.12833688 0.07033841 0.14918523 0.113906495 0.061628096
0.13919322 -0.09169368 -0.16169068 0.04032992 0.063509375 0.14070207 -0.13696963 -0.08978582
0.06326444 0.108871594 0.15137853 0.082300626 0.03734635 0.04765937 -0.025919786 -0.11518668
6.876941e-05 -0.10566156 -0.10767758 0.11576943 0.026438951 -0.010609875 0.16529317 -0.11974965
0.1549932 0.12127569 0.06520342 -0.044246286 -0.14561553 0.14089493 0.14697073 0.008225024
0.07154257 0.015910372 -0.079972744 0.12946248 -0.136132 0.06284617 0.14281328 -0.0634077
0.018327743 -0.1130925 -0.046218876 -0.092307195 0.13035896 0.12846544 0.1535362 0.022305837
-0.10459782 0.1415699 -0.017793082 0.037353076 -0.1389011 0.04795079 0.0066540036 0.0025533081

l2.weight f4 [3, 700]
00000000: 12d2 bbbc 0288 4b3b 38b2 e0bc 68c5 083c
00000010: bad1 6abc ad77 1dbd 777f 51bc dec7 9b3b
00000020: e494 ecbc 95da 07bb 83ec ad3c 275e a63c
00000030: a793 c63c 71df a7bc 9bde 27bc abab e83c
00000040: 39fa 4c3c 419d 25bd 8ac8 b83c dea0 c83c
00000050: 8f9d cf3c d1d0 de3b 9a7a aabc b913 fb3c
00000060: 0b7d d3bb 9b28 cdbc b388 673b 923d 02bd
00000070: 2874 393c eb86 05bd 5a42 173d d6d5 91bc
00000080: 689a b7bc 9721 2abc d8c8 c03c fc7c 1cbc
00000090: 3a9b f2bc 48ae 113c 3da8 923c 83ce c33c
000000a0: de30 bf3c 21e8 f23c 07f5 f3bb 3bee 3abc
000000b0: bbdc cabb 07e6 f1bc a753 613c 06f6 cf3c
000000c0: ddee 093d b0c9 283c 9dbe adbc 587a 3cbc
000000d0: 42e8 b8bc c62a 0ebd 89d4 783c 66c6 c9bc
000000e0: 8e20 a4bc 26cd b43b 717d 753c a579 893c
000000f0: 835e e63c 47ce 043a 18b9 9dbc 5a34 7fbc
00000100: 9547 1b3c e1c8 17bc 093d 2e3d d461 6d3c
00000110: e605 213b 8d61 babc a098 8abb 5391 213c
00000120: f4d6 adbc b571 bcbc 1afd 8b3c c2c5 97bc
00000130: 3d85 91bc d038 723c e202 95bb 2b75 0d3d
00000140: a59c 1d3b 8914 a43c 3078 ea3c c2bf 71bc
00000150: af93 4c3c e4de dd3c 600b 223b 2f3b d8bc
00000160: 729e 10bb 5b08 993c c2f0 b8bc ae7a 993b
00000170: 47cf 75bc 5b4f 4abc 8504 573c b9c5 673c
00000180: 06fa 0abc 3025 c3bb b14c 09bd dd56 ec3b
00000190: 8fa5 4dbc 059f f43b 0b57 b53c a8e9 653c
000001a0: efdf bfbc 72e6 f73c e42d d03c 0b61 babb
000001b0: 23a9 a23b a3fa 143c 834a a93c db82 95bc
000001c0: 0d23 fbbb 0633 98bc 416b 92bb 5fae ec3c
000001d0: 1772 0d3d a825 babc 8db7 883c 0003 ceb9
000001e0: 52c5 bebc 45af 943c 4b62 dc3a e17e bfbb
000001f0: f812 73bc 3aa9 0bbd c9d7 80bc 42b7 fdbc
00000200: 5dfe 233c b353 37bc 89d9 ab3b ee5e 1bbd
00000210: e007 0bbc c2de ea3c eaae a53c 7e50 80bc
00000220: baef f4bc cbb6 74bc 1998 0abd 3f9b debc
00000230: ed3c 89ba 561f 12bd 7256 3c3c 1c40 0b3d
00000240: 5ad0 82bc 5bf5 0dbc 4041 6bba cb05 4bbb
00000250: 9064 89bc 1d23 bdbc 5d61 8c3c 2abf 923c
00000260: d5b0 5e3b 1bff cc3c 897c f7bb bbc7 dc3c
00000270: 2ea0 583c b690 13bc 7b1b e5bb a563 203d
00000280: a360 fa3c 1f4a e9bc 403e 0e3d 62ec ad3b
00000290: b683 3cba aae4 f0bc 6b87 3b3c 27f2 9ebc
000002a0: baf5 ccbc 6595 7dbc 73ae 00bd d357 1c3d
000002b0: 3a10 a6ba 4185 2cbd 56a1 9a3c b9a6 1dbc
000002c0: 6ffb b33c ee41 b9bc 38ca 7ebc d4d2 a73c
000002d0: 2bd4 9c3c 179e f0bc 2d2f 00bd 4970 4e3c
000002e0: 9590 a2bc 4351 063d e6e4 f73c 3808 44bc
000002f0: edf5 0a3b 8dc1 fe3c 2927 83bc 6b6a 05bd
00000300: 3623 1e3b 12c6 7bbc 9b75 5fbc df2e da3c
00000310: 59c4 10bd 2cac 003d 292f 5c3c 96cc 07bd
00000320: 7729 b13c 49bd 8cbc 4fa3 943c 4cda 66bc
00000330: fdb1 893b f4b5 b5bc dc32 14bd e9ae c83c
00000340: c46b 14bd 7c37 ba3c 82a8 d53c 6e2f 5e3c
00000350: 240c a53c fd3b b5bc e06a fc3c 918b 08bd
00000360: 841c 05bd 5a6e 1ebc 91dd 233b 0177 b0bc
00000370: e5e5 d3ba 23c4 d73c ab3c db3c 2009 78bc
00000380: 00d8 bc3c bf21 fcbb 9b87 9a3c ac7a 093b
00000390: c6f9 10bd 4559 943b 26ff bd3c aaa1 d03c
000003a0: 1a9b f4bb 8f52 babc 88a8 4dbc 90be 28bd
000003b0: 495d bdbc 6328 693c 95a2 05bd adf6 a8bc
000003c0: 893a 0bbd 671e 07bd d346 10bd ae93 a339
000003d0: b063 d2bc e042 013d d8c6 383c eb1e e2bc
000003e0: 2b52 783c 3947 243d 0547 49bc d849 f43b
000003f0: 412d a3bb 074f 19bc d9fc c5bc dad0 82bc
-0.022927318 0.0031056409 -0.027428731 0.008347847 -0.014332229 -0.03844421 -0.012786738 0.0047540506
-0.02887959 -0.002072965 0.021230942 0.020308567 0.024240328 -0.020492287 -0.010245944 0.02840217
0.01251083 -0.040433172 0.022556562 0.02449077 0.025343684 0.006799795 -0.020810414 0.030649053
-0.0064541153 -0.025043776 0.0035329282 -0.031797 0.011319198 -0.03259937 0.036928512 -0.01780216
-0.022412494 -0.010383985 0.02353327 -0.009551283 -0.029615033 0.00889165 0.017902488 0.023902183
0.023338731 0.029651703 -0.007444981 -0.011409338 -0.006190864 -0.02952863 0.013752854 0.025385868
0.033675063 0.010301992 -0.021209056 -0.011503778 -0.022571687 -0.03470876 0.015187391 -0.024630737
-0.020035055 0.0055176197 0.014983521 0.016781637 0.028121239 0.0005066138 -0.019253299 -0.015576446
0.009477516 -0.009264202 0.042538676 0.014488656 0.0024570166 -0.022751594 -0.00422962 0.009861308
-0.021220662 -0.023003438 0.017088462 -0.018526915 -0.017763728 0.014784053 -0.004547463 0.03453557
0.0024049666 0.020029323 0.028621763 -0.014755191 0.012486382 0.027083822 0.0024726018 -0.026395408
-0.0022067097 0.018680742 -0.02257574 0.004683814 -0.015003032 -0.012348021 0.013123636 0.014146262
-0.008482462 -0.005955361 -0.033520404 0.0072125033 -0.012551679 0.0074652457 0.022136232 0.014032759
-0.02342221 0.030261252 0.025412507 -0.005687838 0.0049640103 0.00909296 0.020665413 -0.018250873
-0.0076640905 -0.018579017 -0.004468352 0.02889174 0.034532633 -0.022723034 0.016689086 -0.00039293617
-0.023287449 0.018149981 0.0016813962 -0.0058439826 -0.0148360655 -0.034096934 -0.015727894 -0.030971173
0.010009375 -0.011189389 0.005244438 -0.03793233 -0.008485764 0.028670672 0.020225007 -0.015663382
-0.029899467 -0.014936159 -0.033836458 -0.027173636 -0.0010470428 -0.035674416 0.01149522 0.033996686
-0.01596849 -0.008664454 -0.00089742616 -0.0030978795 -0.016771585 -0.023088032 0.01713627 0.01791342
0.0033979912 0.025023988 -0.0075526875 0.026950708 0.013221784 -0.00900667 -0.0069918013 0.03915753
0.030563658 -0.028477727 0.034727335 0.00530772 -0.00071912573 -0.02940591 0.01144586 -0.019402577
-0.025019515 -0.015477513 -0.031416368 0.038169693 -0.0012669631 -0.04211927 0.01887576 -0.009622269
0.021970479 -0.022614446 -0.015551142 0.020486273 0.019144138 -0.029372258 -0.03129499 0.012600013
-0.019844333 0.03279234 0.030260514 -0.01196485 0.0021203712 0.031098152 -0.016009884 -0.03257219
0.0024129874 -0.015367048 -0.013638879 0.026633678 -0.0353435 0.031414196 0.013438978 -0.033154093
0.021626217 -0.017180102 0.018144278 -0.014090132 0.004202126 -0.022181489 -0.036181316 0.024497466
-0.036235586 0.022731535 0.026081327 0.013561113 0.02014739 -0.022123331 0.03081268 -0.033336226
-0.032497898 -0.009669865 0.002500389 -0.02154112 -0.0016166536 0.026338642 0.026762327 -0.015138894
0.023052216 -0.0076944525 0.01886349 0.002097766 -0.035394453 0.0045272433 0.023192953 0.025467712
-0.0074647786 -0.022744445 -0.012552388 -0.04119736 -0.02311577 0.01423082 -0.032625753 -0.020625437
-0.03399137 -0.03298798 -0.035223793 0.00031199813 -0.0256823 0.031557918 0.011277877 -0.027602633
0.015156309 0.040106986 -0.012284999 0.007455092 -0.00497976 -0.0093572205 -0.024168419 -0.015968729

l2.bias f4 [3]
00000000: a4b9 0abd 9fd8 c9bc 19df e83c
-0.033868447 -0.024639426 0.028426694
